[convolutional]
batch=32
height=256
width=256
channels=3

learning_rate=0.0001
momentum=0.9
decay=0.001

filters=48
size=11
stride=4
pad=1
activation=ramp

[convolutional]
pad=1
filters=128
size=5
stride=1
activation=ramp

[maxpool]
stride=2
size=3

[convolutional]
pad=1
filters=192
size=3
stride=1
activation=ramp

[maxpool]
stride=2
size=3

[convolutional]
pad=1
filters=128
size=3
stride=1
activation=ramp

[convolutional]
pad=1
filters=128
size=3
stride=1
activation=ramp

[maxpool]
stride=2
size=3

[connected]
output=100
activation=ramp

[connected]
output=2
activation=ramp

[softmax]

[cost]

