[convolutional]
batch=128
height=224
width=224
channels=3
learning_rate=.0001
momentum=.9
decay=.0005
filters=64
size=5
stride=2
pad=1
activation=ramp

[maxpool]
size=3
stride=2

[convolutional]
filters=64
size=3
stride=2
pad=1
activation=ramp

[maxpool]
size=3
stride=2

[convolutional]
filters=128
size=3
stride=1
pad=1
activation=ramp

[convolutional]
filters=128
size=3
stride=1
pad=1
activation=ramp

[convolutional]
filters=256
size=3
stride=1
pad=1
activation=ramp

[maxpool]
size=3
stride=2

[connected]
output=4096
activation=ramp

[dropout]
probability=.5

[connected]
output=4096
activation=ramp

[dropout]
probability=.5

[connected]
output=1000
activation=linear

[softmax]

[cost]

