[convolutional]
batch=128
height=28
width=28
channels=1
learning_rate=0.000001
momentum=0.9
decay=0
filters=16
size=7
stride=1
pad=1
activation=ramp

[maxpool]
stride=2
size=3

[convolutional]
filters=32
size=3
stride=1
pad=0
activation=ramp

[maxpool]
stride=2
size=2

[convolutional]
filters=32
size=3
stride=1
pad=1
activation=ramp

[maxpool]
stride=2
size=3

[connected]
activation=ramp
output=128

[connected]
activation=ramp
output=10

[cost]
