[convolutional]
learning_rate=.00025
pad=1
momentum=.9
decay=.001
batch=32
height=28
width=28
channels=1
filters=10
size=5
stride=1
activation=ramp

[maxpool]
stride=2

[convolutional]
pad=1
filters=20
size=5
stride=1
activation=ramp

[maxpool]
stride=2

[connected]
output=400
activation=ramp

[connected]
output=400
activation=ramp

[connected]
output=10
activation=ramp

[softmax]
